…
, label_smoothing=0.0, nbs=64, hsv_h=0.015, hsv_s=0.7, hsv_v=0.4, degrees=0.0, translate=0.1, scale=0.5, shear=0.0, perspective=0.0, flipud=0.0, fliplr=0.5, bgr=0.0, mosaic=1.0, mixup=0.0, copy_paste=0.0, auto_augment=randaugment, erasing=0.4, crop_fraction=1.0, cfg=/Share/home/Z23101003/code/ultralytics-main/ultralytics/cfg/1.yaml, tracker=botsort.yaml, save_dir=runs/detect/train3
Overriding model.yaml nc=80 with nc=3
parse_model

                   from  n    params  module                                       arguments                     
  0                  -1  1      7040  ultralytics.nn.modules.conv.Conv             [3, 64, 6, 2, 2]              
  1                  -1  1     73984  ultralytics.nn.modules.conv.Conv             [64, 128, 3, 2]               
  2                  -1  3    156928  ultralytics.nn.modules.block.C3              [128, 128, 3]                 
  3                  -1  1    295424  ultralytics.nn.modules.conv.Conv             [128, 256, 3, 2]              
  4                  -1  6   1118208  ultralytics.nn.modules.block.C3              [256, 256, 6]                 
  5                  -1  1   1180672  ultralytics.nn.modules.conv.Conv             [256, 512, 3, 2]              
  6                  -1  9   6433792  ultralytics.nn.modules.block.C3              [512, 512, 9]                 
  7                  -1  1   4720640  ultralytics.nn.modules.conv.Conv             [512, 1024, 3, 2]             
  8                  -1  3   9971712  ultralytics.nn.modules.block.C3              [1024, 1024, 3]               
  9                  -1  1   2624512  ultralytics.nn.modules.block.SPPF            [1024, 1024, 5]               
 10                  -1  1    525312  ultralytics.nn.modules.conv.Conv             [1024, 512, 1, 1]             
 11                  -1  1         0  torch.nn.modules.upsampling.Upsample         [None, 2, 'nearest']          
 12             [-1, 6]  1         0  ultralytics.nn.modules.conv.Concat           [1]                           
 13                  -1  3   2757632  ultralytics.nn.modules.block.C3              [1024, 512, 3, False]         
 14                  -1  1    131584  ultralytics.nn.modules.conv.Conv             [512, 256, 1, 1]              
 15                  -1  1         0  torch.nn.modules.upsampling.Upsample         [None, 2, 'nearest']          
 16             [-1, 4]  1         0  ultralytics.nn.modules.conv.Concat           [1]                           
 17                  -1  3    690688  ultralytics.nn.modules.block.C3              [512, 256, 3, False]          
 18                  -1  1    590336  ultralytics.nn.modules.conv.Conv             [256, 256, 3, 2]              
 19            [-1, 14]  1         0  ultralytics.nn.modules.conv.Concat           [1]                           
 20                  -1  3   2495488  ultralytics.nn.modules.block.C3              [512, 512, 3, False]          
 21                  -1  1   2360320  ultralytics.nn.modules.conv.Conv             [512, 512, 3, 2]              
 22            [-1, 10]  1         0  ultralytics.nn.modules.conv.Concat           [1]                           
 23                  -1  3   9971712  ultralytics.nn.modules.block.C3              [1024, 1024, 3, False]        
 24        [17, 20, 23]  1   7059673  ultralytics.nn.modules.head.Detect           [3, [256, 512, 1024]]         
YOLOv5l summary: 416 layers, 53165657 parameters, 53165641 gradients

[34m[1mTensorBoard: [0mStart with 'tensorboard --logdir runs/detect/train3', view at http://localhost:6006/
Freezing layer 'model.24.dfl.conv.weight'
[34m[1mAMP: [0mrunning Automatic Mixed Precision (AMP) checks with YOLOv8n...
Downloading https://github.com/ultralytics/assets/releases/download/v8.2.0/yolov8n.pt to 'yolov8n.pt'...
…
